…
se_uri":"https://localhost:8080/"},"id":"zoN0cw0rfxhj","executionInfo":{"status":"ok","timestamp":1653356106695,"user_tz":-540,"elapsed":3980,"user":{"displayName":"조형석","userId":"16389309121080788962"}},"outputId":"a6798add-3be1-4dfd-e4cf-905260946a51"},"execution_count":7,"outputs":[{"output_type":"stream","name":"stdout","text":["Model: \"sequential\"\n","_________________________________________________________________\n"," Layer (type)                Output Shape              Param #   \n","=================================================================\n"," conv2d (Conv2D)             (None, 26, 26, 32)        320       \n","                                                                 \n"," conv2d_1 (Conv2D)           (None, 24, 24, 64)        18496     \n","                                                                 \n"," max_pooling2d (MaxPooling2D  (None, 12, 12, 64)       0         \n"," )                                                               \n","                                                                 \n"," dropout (Dropout)           (None, 12, 12, 64)        0         \n","                                                                 \n"," flatten (Flatten)           (None, 9216)              0         \n","                                                                 \n"," dense (Dense)               (None, 512)               4719104   \n","                                                                 \n"," dropout_1 (Dropout)         (None, 512)               0         \n","                                                                 \n"," dense_1 (Dense)             (None, 10)                5130      \n","                                                                 \n","=================================================================\n","Total params: 4,743,050\n","Trainable params: 4,743,050\n","Non-trainable params: 0\n","_________________________________________________________________\n"]}]},{"cell_type":"code","source":["model.compile('adam','categorical_crossentropy',['accurac
…
