…
e_uri":"https://localhost:8080/"},"id":"1vyjJU9-wghr","executionInfo":{"status":"ok","timestamp":1653373803498,"user_tz":-540,"elapsed":1013,"user":{"displayName":"조형석","userId":"16389309121080788962"}},"outputId":"d0842efc-9b0d-4ee0-8710-59390ebde343"},"execution_count":29,"outputs":[{"output_type":"stream","name":"stdout","text":["Model: \"sequential\"\n","_________________________________________________________________\n"," Layer (type)                Output Shape              Param #   \n","=================================================================\n"," conv2d (Conv2D)             (None, 148, 148, 16)      448       \n","                                                                 \n"," max_pooling2d (MaxPooling2D  (None, 74, 74, 16)       0         \n"," )                                                               \n","                                                                 \n"," conv2d_1 (Conv2D)           (None, 72, 72, 32)        4640      \n","                                                                 \n"," max_pooling2d_1 (MaxPooling  (None, 36, 36, 32)       0         \n"," 2D)                                                             \n","                                                                 \n"," conv2d_2 (Conv2D)           (None, 34, 34, 64)        18496     \n","                                                                 \n"," max_pooling2d_2 (MaxPooling  (None, 17, 17, 64)       0         \n"," 2D)                                                             \n","                                                                 \n"," flatten (Flatten)           (None, 18496)             0         \n","                                                                 \n"," dense (Dense)               (None, 512)               9470464   \n","                                                                 \n"," dense_1 (Dense)             (None, 1)                 513       \n","                                                                 \n","=================================================================\n","Total params: 9,494,561\n","Trainable params: 9,494,561\n","Non-trainable params: 0\n","_________________________________________________________________\n"]}]},{"cell_type":"code","source":["from tensorflow.keras.optimizers import RMSprop\n","\n",
…
